…
│    │    └─KAN_Convolution: 3-521       --                        217
│    │    └─KAN_Convolution: 3-522       --                        217
│    │    └─KAN_Convolution: 3-523       --                        217
│    │    └─KAN_Convolution: 3-524       --                        217
│    │    └─KAN_Convolution: 3-525       --                        217
│    │    └─KAN_Convolution: 3-526       --                        217
│    │    └─KAN_Convolution: 3-527       --                        217
│    │    └─KAN_Convolution: 3-528       --                        217
├─MaxPool2d: 1-4                         [16, 32, 5, 5]            --
├─Flatten: 1-5                           [16, 800]                 --
├─Linear: 1-6                            [16, 100]                 80,100
├─ReLUKAN: 1-7                           [16, 10]                  --
│    └─ModuleList: 2-3                   --                        --
│    │    └─ReLUKANLayer: 3-529          [16, 10]                  9,610
==========================================================================================
Total params: 204,286
Trainable params: 204,286
Non-trainable params: 0
Total mult-adds (M): 86.40
==========================================================================================
Input size (MB): 0.05
Forward/backward pass size (MB): 9.33
Params size (MB): 0.51
Estimated Total Size (MB): 9.89
===
…
