==========================================================================================
Layer (type:depth-idx)                   Output Shape              Param #
==========================================================================================
Spiking_DenseMLP                         [16, 10]                  655,360
├─ModuleList: 1-1                        --                        16,384
│    └─Linear: 2-1                       [16, 128]                 100,352
│    └─Linear: 2-2                       [16, 128]                 16,384
│    └─Linear: 2-3                       [16, 128]                 16,384
│    └─Linear: 2-4                       [16, 128]                 16,384
│    └─Linear: 2-5                       [16, 128]                 16,384
│    └─Linear: 2-6                       [16, 128]                 (recursive)
│    └─Linear: 2-7                       [16, 128]                 (recursive)
│    └─Linear: 2-8                       [16, 128]                 (recursive)
│    └─Linear: 2-9                       [16, 128]                 (recursive)
│    └─Linear: 2-10                      [16, 128]                 (recursive)
│    └─Linear: 2-11                      [16, 128]                 (recursive)
…
