==========================================================================================
Layer (type:depth-idx)                   Output Shape              Param #
==========================================================================================
Spiking_DenseReLUKAN                     [16, 10]                  655,360
├─ModuleList: 1-1                        --                        133,248
│    └─ReLUKANLayer: 2-1                 [16, 128]                 12,544
│    │    └─Conv2d: 3-1                  [16, 128, 1, 1]           802,944
│    └─ReLUKANLayer: 2-2                 [16, 128]                 2,048
│    │    └─Conv2d: 3-2                  [16, 128, 1, 1]           131,200
│    └─ReLUKANLayer: 2-3                 [16, 128]                 2,048
│    │    └─Conv2d: 3-3                  [16, 128, 1, 1]           131,200
│    └─ReLUKANLayer: 2-4                 [16, 128]                 2,048
│    │    └─Conv2d: 3-4                  [16, 128, 1, 1]           131,200
│    └─ReLUKANLayer: 2-5                 [16, 128]                 2,048
│    │    └─Conv2d: 3-5                  [16, 128, 1, 1]           131,200
│    └─ReLUKANLayer: 2-6                 [16, 128]                 (recursive)
│    │    └─Conv2d: 3-6                  [16, 128, 1, 1]           (recursive)
│    └─ReLUKANLayer: 2-7                 [16, 128]                 (recursive)
│    │    └─Conv2d: 3-7                  [16, 128, 1, 1]           (recursive)
│    └─ReLUKANLayer: 2-8                 [16, 128]                 (recursive)
│    │    └─Conv2d: 3-8                  [16, 128, 1, 1]           (recursive)
…
